…
 title="1. P-Net： Proposal Network"></a>1. P-Net： Proposal Network</h2><p>检测任务比较重要的一步是产生数目足够多的候选框，<code>PNet</code>设计全卷积网络，可接受任意大小的图片输入，利用输出的特征图生成候选框，具体生成算法在检测算法中说明。该网络在训练时接受$12×12×3$的图像输入，各层参数如下。</p><figure class="highlight plain"><table><tr><td class="gutter"><pre><span class="line">1</span><br><span class="line">2</span><br><span class="line">3</span><br><span class="line">4</span><br><span class="line">5</span><br><span class="line">6</span><br></pre></td><td class="code"><pre><span class="line">layer     filters    size           input                output</span><br><span class="line">0 conv      10      3 x 3 / 1    12 x  12 x   3   -&gt;    10 x  10 x  10  0.000 BFLOPs</span><br><span class="line">1 max               2 x 2 / 2    10 x  10 x  10   -&gt;     5 x   5 x  10</span><br><span class="line">2 conv      16      3 x 3 / 1     5 x   5 x  10   -&gt;     3 x   3 x  16  0.000 BFLOPs</span><br><span class="line">3 conv      32      3 x 3 / 1     3 x   3 x  16   -&gt;     1 x   1 x  32  0.000 BFLOPs</span><br><span class="line">4 conv      15      1 x 1 / 1     1 x   1 x  32   -&gt;     1 x   1 x  15  0.000 BFLOPs</span><br></pre></td></tr></table></figure><h2 id="2-R-Net：-Refine-Network"><a href="#2-R-Net：-Refine-Network" class="headerlink" title="2. R-Net： Refine Network"></a>2. R-Net： Refine Network</h2><p><code>PNet</code>产生候选框后，将这些候选框内的图像数据分割并缩放到统一大小，输入到<code>RNet</code>改善识别结果。该网络最后增加全连接层，仅接受$24×24×3$的图像输入，各层参数如下。</p><figure class="highlight plain"><table><tr><td class="gutter"><pre><span class="line">1</span><br><span class="line">2</span><br><span class="line">3</span><br><span class="line">4</span><br><span class="line">5</span><br><span class="line">6</span><br><span class="line">7</span><br><span class="line">8</span><br></pre></td><td class="code"><pre><span class="line">layer     filters    size           input                output</span><br><span class="line">0 conv     28       3 x 3 / 1    24 x  24 x   3   -&gt;    22 x  22 x  28  0.001 BFLOPs</span><br><span class="line">1 max               3 x 3 / 2    22 x  22 x  28   -&gt;    11 x  11 x  28</span><br><span class="line">2 conv     48       3 x 3 / 1    11 x  11 x  28   -&gt;     9 x   9 x  48  0.002 BFLOPs</span><br><span class="line">3 max               3 x 3 / 2     9 x   9 x  48   -&gt;     4 x   4 x  48</span><br><span class="line">4 conv     64       2 x 2 / 1     4 x   4 x  48   -&gt;     3 x   3 x  64  0.000 BFLOPs</span><br><span class="line">5 connected                                 576   -&gt;               128</span><br><span class="line">6 connected                                 128   -&gt;                15</span><br></pre></td></tr></table></figure><h2 id="3-O-Net：-Output-Network"><a href="#3-O-Net：-Output-Network" class="headerlink" title
…
